mediapip and custom model/model/keypoint_classifier/keypoint_classifier.tflite (tflite, 6544 bytes, 6 tensors)

dense_2/bias f4 [4]
000000 3a c7 d5 be d0 e2 80 be c1 c3 01 3f 02 1b 8d 3e
       -0.4175356 -0.25173044 0.5068932 0.27559668

dense_1/bias f4 [10]
000000 7f 98 42 be 9b 99 8d 3d f8 5e e2 3d 23 1c 6f 3e
       -0.19003485 0.069140635 0.1105327 0.23350577
000010 90 46 0c 3f 1f 62 de 3e a9 04 b0 be 2b 1d 0d 3f
       0.5479517 0.43434235 -0.34378555 0.5512263
000020 de d8 b6 bd 79 f6 60 be
       -0.08928083 -0.21969022

dense/bias f4 [50]
000000 ec ce d3 be 33 73 eb be 2c cc 60 be 96 e7 d0 be
       -0.41368806 -0.45986328 -0.21952885 -0.40801686
000010 9e 5f 3e bf cf 62 39 bf f6 84 15 bf 8a 3d e0 be
       -0.7436465 -0.72416395 -0.5840601 -0.4379695
000020 c9 77 d6 be 26 7e fd be f5 e5 48 bf ac a1 f9 be
       -0.41888264 -0.49510306 -0.78475887 -0.48756158
000030 e9 c8 58 be 10 77 ce bd 21 a5 59 be ec 7f 30 bf
       -0.21170391 -0.10081303 -0.21254398 -0.68945193
000040 11 7e 0a bf f0 c3 e2 be 85 41 e9 be de 3a 09 bf
       -0.5409861 -0.44290113 -0.455578 -0.5360545
000050 c1 43 0e 3e fc fb 42 3e 13 01 de be 75 ce 01 bf
       0.13893034 0.19041437 -0.43360195 -0.50705653
000060 55 70 9a be a4 cc bb bc a1 85 d1 be fd 1f 74 3d
       -0.30163828 -0.022924729 -0.40922263 0.05960082
000070 33 92 0f bf d3 5b 03 bf 49 a6 96 be 80 32 4e be
       -0.5608246 -0.5131199 -0.2942374 -0.20136452
000080 b7 20 99 be 8a be 4e be 5c b8 85 be 31 39 af be
       -0.29907772 -0.20189872 -0.26117218 -0.3422332
000090 d8 ad 99 3c 73 d2 1b be de 91 be be e9 99 07 bf
       0.018759653 -0.15216999 -0.37220663 -0.52969223
0000a0 ff 11 99 bd e8 f5 d2 be 6f 8a 08 bf b3 75 1f bf
       -0.074741356 -0.41203237 -0.5333623 -0.6228897
0000b0 fe 6c 0e bf eb 1e 37 bf e5 e0 e3 be d5 ab e2 bb
       -0.5563506 -0.7153155 -0.44507518 -0.0069174566
0000c0 a1 d2 46 be 3b 29 3c bf
       -0.19416286 -0.7350041

sequential/dense/MatMul i1 [50, 42] scale=0.01049862 zero_point=0
000000 12 fd 0a 47 f5 0e 0f f8 d5 f6 14 0f 00 06 07 ff
       0.18897516 -0.031495858 0.1049862 0.745402 -0.11548482 0.14698067 0.1574793 -0.08398896 -0.45144063 -0.1049862 0.2099724 0.1574793 0.0 0.062991716 0.07349034 -0.01049862
000010 08 fa 17 fe fc eb f5 02 ed 0e 04 f6 ea fa dc 0e
       0.08398896 -0.062991716 0.24146825 -0.02099724 -0.04199448 -0.22047101 -0.11548482 0.02099724 -0.19947377 0.14698067 0.04199448 -0.1049862 -0.23096964 -0.062991716 -0.3779503 0.14698067
000020 f7 16 09 e5 fa fd e8 0d ef 12 0c 04 11 2b 04 0e
       -0.09448758 0.23096964 0.09448758 -0.28346273 -0.062991716 -0.031495858 -0.25196686 0.13648206 -0.17847653 0.18897516 0.12598343 0.04199448 0.17847653 0.45144063 0.04199448 0.14698067
000030 05 f7 0f ef bc 07 f1 dc 04 06 02 02 c4 00 ff fd
       0.0524931 -0.09448758 0.1574793 -0.17847653 -0.7139061 0.07349034 -0.1574793 -0.3779503 0.04199448 0.062991716 0.02099724 0.02099724 -0.6299172 0.0 -0.01049862 -0.031495858
000040 11 07 10 0a c5 ef 03 00 1d 0a 0e 08 cf dd fe f6
       0.17847653 0.07349034 0.16797791 0.1049862 -0.61941856 -0.17847653 0.031495858 0.0 0.30445996 0.1049862 0.14698067 0.08398896 -0.5144324 -0.3674517 -0.02099724 -0.1049862
000050 12 08 0e 0a 13 eb 02 07 03 fc 09 f7 07 f0 fc fc
       0.18897516 0.08398896 0.14698067 0.1049862 0.19947377 -0.22047101 0.02099724 0.07349034 0.031495858 -0.04199448 0.09448758 -0.09448758 0.07349034 -0.16797791 -0.04199448 -0.04199448
000060 f9 f4 ed fb df 43 f9 fb fc ea 0a fb 19 23 f3 f7
       -0.07349034 -0.12598343 -0.19947377 -0.0524931 -0.34645444 0.7034075 -0.07349034 -0.0524931 -0.04199448 -0.23096964 0.1049862 -0.0524931 0.26246548 0.3674517 -0.13648206 -0.09448758
000070 f0 ef 11 19 27 38 ec f9 fb fb 01 09 14 27 f3 16
       -0.16797791 -0.17847653 0.17847653 0.26246548 0.40944618 0.5879227 -0.2099724 -0.07349034 -0.0524931 -0.0524931 0.01049862 0.09448758 0.2099724 0.40944618 -0.13648206 0.23096964
000080 04 0b 0f d4 f3 e6 01 db 01 18 fc f8 f4 f4 fd f9
       0.04199448 0.11548482 0.1574793 -0.46193928 -0.13648206 -0.27296412 0.01049862 -0.38844892 0.01049862 0.25196686 -0.04199448 -0.08398896 -0.12598343 -0.12598343 -0.031495858 -0.07349034
000090 f8 1c 10 e3 fc 07 e4 27 07 17 01 f4 fc 1a f7 54
       -0.08398896 0.29396135 0.16797791 -0.30445996 -0.04199448 0.07349034 -0.29396135 0.40944618 0.07349034 0.24146825 0.01049862 -0.12598343 -0.04199448 0.27296412 -0.09448758 0.88188404
0000a0 0c 07 17 df 07 2a fc 4b eb ef 05 c6 13 ee 0d f0
       0.12598343 0.07349034 0.24146825 -0.34645444 0.07349034 0.44094202 -0.04199448 0.7873965 -0.22047101 -0.17847653 0.0524931 -0.6089199 0.19947377 -0.18897516 0.13648206 -0.16797791
0000b0 ea fc 28 e5 fa f4 f6 02 fb 01 22 ea f1 f4 03 07
       -0.23096964 -0.04199448 0.4199448 -0.28346273 -0.062991716 -0.12598343 -0.1049862 0.02099724 -0.0524931 0.01049862 0.35695305 -0.23096964 -0.1574793 -0.12598343 0.031495858 0.07349034
0000c0 ff 09 f8 f4 05 f4 ff 08 00 0a f0 dc 02 f7 03 02
       -0.01049862 0.09448758 -0.08398896 -0.12598343 0.0524931 -0.12598343 -0.01049862 0.08398896 0.0 0.1049862 -0.16797791 -0.3779503 0.02099724 -0.09448758 0.031495858 0.02099724
0000d0 07 0b f6 f3 3f 10 1c 16 26 05 0e e0 02 2d 03 14
       0.07349034 0.11548482 -0.1049862 -0.13648206 0.661413 0.16797791 0.29396135 0.23096964 0.39894754 0.0524931 0.14698067 -0.33595583 0.02099724 0.4724379 0.031495858 0.2099724
0000e0 f7 02 f8 f7 0b 27 08 02 fe fc 06 00 1d 04 06 00
       -0.09448758 0.02099724 -0.08398896 -0.09448758 0.11548482 0.40944618 0.08398896 0.02099724 -0.02099724 -0.04199448 0.062991716 0.0 0.30445996 0.04199448 0.062991716 0.0
0000f0 04 fe f8 00 19 02 08 f8 fe f7 01 03 0e 0d f2 18
       0.04199448 -0.02099724 -0.08398896 0.0 0.26246548 0.02099724 0.08398896 -0.08398896 -0.02099724 -0.09448758 0.01049862 0.031495858 0.14698067 0.13648206 -0.14698067 0.25196686

sequential/dense_1/MatMul f4 [10, 50]
000000 fe e4 2c 3f de bd b1 be e6 4f f1 3e 5a c9 28 3f
       0.67536914 -0.3471517 0.4713127 0.6593224
000010 65 e5 2d be b8 cb 53 be cc 88 2f bf e0 a8 b9 be
       -0.16982038 -0.20683181 -0.6856811 -0.36261654
000020 43 03 ba 3c a6 ff 38 bf d1 b3 4b bf 03 9b 25 bd
       0.022706633 -0.7226509 -0.79571253 -0.040431034
000030 6e 11 e3 3e cc e4 02 bd 2b b0 1e be e4 95 ff 3d
       0.44349235 -0.03195648 -0.1549689 0.12479761
000040 d6 6b f5 3e fe 4a 18 3f ae 0a 2d 3e a9 65 6f bf
       0.47933835 0.5948943 0.16898605 -0.93514496
000050 8a 04 d9 3c 77 01 0d 3f c3 0c e1 bd 51 38 9c be
       0.026491422 0.5508036 -0.10988762 -0.30511716
000060 57 77 28 3f 70 c2 69 39 4b 75 44 be 9f 8a 84 3e
       0.658071 0.00022293045 -0.19185369 0.2588701
000070 51 e0 47 3e 7b 68 0e 3f e7 b7 c8 3d 35 f8 47 be
       0.19519164 0.55628175 0.098007016 -0.19528277
000080 2e 19 a7 3e 14 ae c9 3e 9a 14 28 3e 98 e2 31 3e
       0.32636398 0.39390624 0.16414109 0.17371595
000090 49 28 fa be 21 c7 21 bc ad fd fc 3e 05 e8 37 3f
       -0.4885886 -0.009874136 0.4941229 0.7183841
0000a0 71 7b e7 3e 6b e8 d3 bd 78 25 1b bf e5 e3 31 3d
       0.45211366 -0.103470646 -0.6060405 0.043430228
0000b0 cd 57 1c bb a5 60 10 bf 92 59 83 3b 6e 06 80 3e
       -0.0023856044 -0.5639747 0.0040084803 0.25004905
0000c0 62 98 d2 3d ed a2 01 bf 6c 17 2c 3e 70 6d 93 3e
       0.10282971 -0.5063923 0.1680581 0.28794432
0000d0 fe 43 94 3e 92 53 b5 3e 1a bd a0 3b 0b 8d 01 bf
       0.28958124 0.35415322 0.004905355 -0.5060584
0000e0 4f fe 14 3d 21 94 46 be cb d6 b0 3e ed f8 9e 3c
       0.03637534 -0.19392444 0.34538874 0.019405806
0000f0 99 86 fd be d9 e8 01 3e 2a e1 c7 bd 44 99 00 3f
       -0.49516752 0.1268648 -0.097597435 0.50233865
000100 cb 22 9e 3f 5f dc 46 3e 2c 5c 4e 3f 73 e2 f6 3e
       1.2354368 0.19420002 0.80609393 0.48219642
000110 10 c9 4f bd d1 ea 8f bc dc 79 7a 3f 1c 64 43 3e
       -0.050728858 -0.017568024 0.9784219 0.19081157
000120 77 56 72 3d 44 53 5c 3e ab ab f3 3c 2c 1b 39 3f
       0.05916449 0.21516138 0.029744944 0.72307086
000130 17 0e 49 be c1 eb 1e 3f 72 2b bd 3e e5 74 20 3e
       -0.19634281 0.6207848 0.3694721 0.15669592
000140 d8 0b 68 3f 3d cc 33 3f 0e d6 13 3f 58 cd 6c bb
       0.9064307 0.7023352 0.57748497 -0.0036133137
000150 5e 65 92 3f c2 a1 3b 3f 25 03 4d 3d f8 3a 34 3f
       1.1437185 0.732937 0.050051827 0.7040248
000160 4c ac 2e 3d ee da 2a 3f ab 89 50 3d 25 d6 3d bd
       0.042644784 0.6674031 0.05091254 -0.046346802
000170 d2 32 2f bc 30 68 cb bc 09 02 e7 bc 25 55 06 be
       -0.010693269 -0.024829954 -0.028199213 -0.13118418
000180 79 54 04 3f 19 9c 98 3e 7c a8 3b 3a 3a e4 90 bd
       0.51691395 0.29806593 0.000715859 -0.07074781
000190 99 57 65 3e 09 63 50 3f c2 4d 72 be 68 e0 44 be
       0.22396697 0.81401116 -0.23662475 -0.19226229
0001a0 6e bd 40 3f c1 f8 5d 3f 8f 27 b0 3d b4 12 56 3f
       0.75289047 0.86707693 0.08601295 0.8362229
0001b0 98 a5 0a 3e 0a ad 18 be 83 83 6c 3f 54 20 d1 3e
       0.13539732 -0.14909759 0.9238817 0.40844977
0001c0 be 27 ed bd ba b4 a5 3e 4a 3d df bd 41 1c 1b 3e
       -0.11579846 0.32364446 -0.10900362 0.15147497
0001d0 f6 e8 32 3e 10 a5 4a be d2 8f 8d 3e a0 23 85 3f
       0.1747168 -0.19789529 0.2764879 1.0401497
0001e0 9e 0a c6 3e 24 83 7b bc 84 85 4d 3c 07 2a e0 3e
       0.38679975 -0.015351091 0.01254404 0.43782064
0001f0 37 56 83 be cf f3 dc 3e 0a f7 2c 3f b1 f2 ab 3e
       -0.25651714 0.4315476 0.6756445 0.33583596
000200 02 31 ae bc 31 c5 f5 3d 3c de 33 bd f5 bb fe 3e
       -0.021263603 0.12000502 -0.04391311 0.49752775
000210 f8 d5 17 bc 10 d4 b5 3c 31 2a 82 bd 0a dc ca bd
       -0.009267323 0.022195846 -0.063557036 -0.0990525
000220 d3 5a a9 3e 20 b9 79 3e ed 51 95 be f5 81 e7 be
       0.33077106 0.24387026 -0.29164067 -0.45216337
000230 33 58 e0 3e ba 67 d9 be 0a 60 7d 3d fd 38 97 be
       0.4381729 -0.4246195 0.061859168 -0.29535666
000240 a9 c6 0a 3f 5e 25 0f 3f 42 bd f5 3e e0 4e cc 3e
       0.5420938 0.5591639 0.47995955 0.39903927
000250 c2 59 c0 be 96 1e 14 3e c6 42 5e 3e 87 47 ab be
       -0.3756848 0.14464793 0.2170516 -0.3345301
000260 49 04 07 bd 10 29 01 bf 48 97 f9 be 11 61 73 be
       -0.03296307 -0.5045328 -0.4874823 -0.23767497
000270 af 9a 15 3f 4d a0 d3 be c5 1e 02 3d eb 57 0b 3f
       0.58439153 -0.41333237 0.031767625 0.5443103
000280 aa ab 95 be 8a 87 8c be 82 ba 0c 3f 51 97 2e 3e
       -0.29232532 -0.27447158 0.5497209 0.1704991
000290 1e e2 2e 3e 0d 5c b7 3d c3 b2 3d be ed c4 62 3e
       0.17078444 0.08953104 -0.18525223 0.22145434
0002a0 e6 14 1c 3e 48 63 39 bf d0 79 87 bd 76 ec 05 bf
       0.15242347 -0.72417116 -0.06615031 -0.52313936
0002b0 03 b3 a3 3e 03 b1 4e 3e c0 bd e3 3b b5 61 6b be
       0.31972513 0.20184712 0.00695011 -0.22986491
0002c0 14 43 8c be 4b f8 93 be 8a c8 1b 3f 42 83 a6 be
       -0.27394927 -0.2890037 0.60852873 -0.32522017
0002d0 c2 52 48 3e 88 6f a4 3a b1 90 a8 3d a6 c4 0f 3f
       0.1956282 0.0012545446 0.08230723 0.56159437
0002e0 f6 29 06 be 89 90 6d 3e 79 21 ee 3e 72 3c cf 3b
       -0.13101944 0.23199667 0.46509913 0.0063243443
0002f0 1a ea da 3d f2 46 0a 3f af 2b 15 be 6b e4 2a 3f
       0.106891826 0.54014504 -0.14567445 0.6675479
000300 7f 99 0b 3f 9d bf 2f 3f b3 d4 01 bf fb 11 90 bd
       0.5453109 0.68651754 -0.5071518 -0.070346795
000310 8c 17 a6 bd 97 96 9c bd 40 8f 71 3f 89 da 38 3d
       -0.0810996 -0.0764591 0.9435921 0.045130286
000320 f7 8e 31 be 52 45 50 3d e7 e5 85 be 66 39 24 bf
       -0.17339693 0.05084736 -0.26151964 -0.64150083
000330 dc e6 af 3b 03 0d 20 be 99 20 ca be 9a a8 24 3e
       0.0053680968 -0.15629964 -0.39477995 0.16079941
000340 30 4a 05 be 46 15 17 bf 98 7c d5 bc 28 1b 79 3e
       -0.13016582 -0.59016836 -0.026060387 0.24326766
000350 d2 7b 22 bf ed 5f cf 3d 49 2b f7 3e 5b 02 a2 be
       -0.63470185 0.10125718 0.4827521 -0.31642422
000360 59 10 ff be 8e 37 2a bf 7e 58 13 3c b0 a6 94 3c
       -0.4981716 -0.6649102 0.008993266 0.018145889
000370 4c f9 9b 3e b7 e7 b9 3d cd 18 07 bf 3d 78 8c 3d
       0.30463636 0.09077399 -0.5277222 0.06858871
000380 c8 19 0d bf dc 2c be 3d 0a 96 d7 3e a9 de 77 3e
       -0.55117464 0.092859 0.42106658 0.24206032
000390 87 8c 01 bf 09 9d c6 be d6 24 17 3f c5 12 d6 3c
       -0.5060505 -0.38791683 0.5904058 0.026131997
0003a0 56 d2 c5 3d ae 5c 91 bf 3c df b7 3d 83 86 44 bf
       0.09659259 -1.1356409 0.089781255 -0.7676775
0003b0 d8 b2 b7 3d 6d 22 e9 bc 6b 0d d3 be f5 5a 42 bf
       0.089696586 -0.028458798 -0.41221175 -0.7592004
0003c0 04 55 85 3e 1d 62 3a bf b0 31 37 bf 2b a0 35 bf
       0.26041424 -0.7280596 -0.7156019 -0.7094752
0003d0 d4 ea f2 bd 2f 9d 80 be 14 e3 11 bf 14 37 db be
       -0.11861196 -0.25119922 -0.5698712 -0.4281546
0003e0 44 70 87 bf 37 05 4c be 00 c7 02 bd ae 3f 70 3e
       -1.0581136 -0.19923864 -0.031928062 0.23461792
0003f0 89 6e 02 bf df 21 5c be 1b 4a b0 3e 11 93 8a 3c
       -0.50949913 -0.21497296 0.34431538 0.01691583

sequential/dense_2/MatMul f4 [4, 10]
000000 67 35 7c 3f f1 9e 5e 3f 37 56 bc be 96 cd 01 3f
       0.98518986 0.86961275 -0.36784527 0.50704324
000010 d5 f6 5f bf fb 54 6b bf 5d 0d af 3e 9d 49 88 3d
       -0.8748601 -0.91926545 0.34189883 0.066546656
000020 aa 2c 67 3f 39 af 12 be 0f 33 cf be 3b 53 a7 3e
       0.90302527 -0.14324655 -0.40468642 0.32680687
000030 3c 0e 83 3f 2f 5f 4e bf 09 51 68 bf 5a 1b 35 3f
       1.0238719 -0.8061399 -0.9074865 0.7074486
000040 18 b3 22 3f 4e 71 ad be 3b 08 0c 3e dc 08 2f 3f
       0.63554525 -0.33875507 0.13675015 0.68372893
000050 dd ca 2f bf 66 c8 26 3f 8d d2 d7 3e 94 0d 54 bf
       -0.6866892 0.65149534 0.42152825 -0.8283322
000060 f8 60 be 3f 68 cd e6 be 74 54 60 be 0f 4b 99 3f
       1.4873343 -0.45078588 -0.21907216 1.1976031
000070 7c 9e 4d be 5c a4 0f bf 6d ac 69 3d af 1d df bf
       -0.20079988 -0.5611017 0.057049204 -1.7430934
000080 ce 24 4d bf 2e de 4f 3f d8 89 fb be 4d 10 04 3f
       -0.80134284 0.81198394 -0.49128604 0.51587373
000090 e3 57 b9 bf 3b b6 36 bf a0 ef f5 3d ef 2e 9e bf
       -1.4479946 -0.7137181 0.120085955 -1.2358073
